recognize/data.pth (torch, 11735 bytes, 6 tensors)

l1.weight f4 [8, 206]
0	0x3e1d9056	0.15387091
1	0x3d4fbf59	0.050719593
2	0xbd3e0170	-0.04638809
3	0x3d999b40	0.07500315
4	0x3ef63dc3	0.48093995
5	0x3d4c8e93	0.049940657
6	0x3d1e5cdb	0.038662773
7	0x3e0f6222	0.14002278
8	0x3e319464	0.17341763
9	0x3edce742	0.43145186
10	0x3d955b31	0.07292784
11	0xbe3ca4dc	-0.18422264
12	0x3dc25f4b	0.09490832
13	0x3e28b796	0.16476282
14	0x3ebf74c5	0.37393776
15	0x3d5f25ec	0.054479524
16	0x3d8314ec	0.06400475
17	0x3d93ca84	0.07216361
18	0x3e88b15e	0.2669782
19	0x3e8fbc93	0.28073558
20	0x3ec00e95	0.37511125
21	0x3d0386a4	0.032110825
22	0x3e0141a5	0.12622698
23	0xbd39fa9a	-0.045405008
24	0xbd176697	-0.03696307
25	0xbbd16ead	-0.0063913674
26	0xbc3a4778	-0.011369579
27	0xbe2bddd0	-0.16783834
28	0x3e869912	0.26288658
29	0x3de941fb	0.11389538
30	0xbd48564f	-0.048910435
31	0xbd0d3cc8	-0.034481794
32	0x3e2451c7	0.1604682
33	0x3e1968f0	0.14981437
34	0x3e3c8986	0.18411836
35	0x3e1c18b9	0.15243806
36	0x3e031ced	0.12804003
37	0x3cb9f240	0.022698522
38	0x3e6587e9	0.22415127
39	0xbe1a4cd6	-0.15068373
40	0x3e1274f0	0.1430242
41	0x3e51acef	0.20476125
42	0x3e77606f	0.2415788
43	0x3e4b16f1	0.1983297
44	0x3eb63709	0.35588863
45	0xbeb4462b	-0.35209784
46	0x3c230e38	0.0099521205
47	0x3e047925	0.12936838
48	0x3e4aede6	0.19817314
49	0x3e4b91f8	0.19879901
50	0x3e8967d8	0.2683704
51	0x3e118e9a	0.14214554
52	0x3ebe5d30	0.3718047
53	0x3e06d17f	0.13165854
54	0x3cca2ad0	0.024678618
55	0xbbff603c	-0.0077934545
56	0x3e68e619	0.22744025
57	0x3d94b045	0.07260183
58	0x3e7c1839	0.24618615
59	0x3cba9259	0.022774862
60	0x3e227b03	0.15867238
61	0xbd84b99a	-0.06480713
62	0x3dc1dce0	0.09465957
63	0x3e21ce0c	0.15801257
64	0x3e76d12f	0.24103235
65	0x3ee9f273	0.45692787
66	0xbe04bdcf	-0.12963031
67	0xbd761f0e	-0.06008821
68	0x3eea3295	0.45741716
69	0x3e952dad	0.2913641
70	0xbd56d038	-0.052444667
71	0xbc8f0721	-0.017459454
72	0x3d5b3160	0.053513885
73	0x3e376923	0.179112
74	0x3e2e5e26	0.17028102
75	0x3e3acf44	0.18243128
76	0xbcf1e010	-0.029525787
77	0x3e114cd9	0.14189471
78	0x3ea91cce	0.3302979
79	0x3dffee78	0.12496656
80	0xbe100a7e	-0.14066502
81	0x3db17d77	0.08666509
82	0x3deb511f	0.11490082
83	0x3e498a92	0.19681767
84	0x3db2e085	0.0873423
85	0xbd9a491b	-0.07533475
86	0x3e40a87a	0.18814269
87	0xbc5df68a	-0.013547549
88	0x3e3ad981	0.18247034
89	0x3d87d071	0.06631554
90	0x3e6d64b8	0.23182952
91	0x3e8f1f04	0.2795335
92	0x3eb164cc	0.34647214
93	0x3da71c45	0.08159689
94	0x3eb01c3a	0.34396535
95	0x3e37cdf5	0.1794966
96	0x3dffb15f	0.12485003
97	0xbd2a8d95	-0.04163893
98	0x3d800600	0.062511444
99	0x3cbc3754	0.022975601
100	0x3efea7bd	0.4973735
101	0x3d2b176c	0.041770384
102	0x3f1420c1	0.5786248
103	0x3e932969	0.2874253
104	0x3c801fe8	0.015640214
105	0x3e0c12a3	0.13678984
106	0x3e1a1bb4	0.1504963
107	0xbdc86fb9	-0.097869344
108	0x3e1ab393	0.15107565
109	0x3e8343b2	0.25637585
110	0x3ebed4f8	0.37271857
111	0x3d059ead	0.03262203
112	0x3c9b54fd	0.018961424
113	0x3e30ee80	0.1727848
114	0xbe180fea	-0.1484982
115	0xbdb91066	-0.09036331
116	0x3e57c327	0.21070538
117	0x3dc6224d	0.09674511
118	0xbdf0f9f1	-0.117664225
119	0xbe1a7975	-0.15085395
120	0xbe043279	-0.12909879
121	0x3db15653	0.08659043
122	0x3f0b354c	0.543782
123	0x3e1e43a8	0.15455496
124	0x3dcd5bb6	0.10027258
125	0x3f7cabca	0.9869963
126	0xbdc3c62d	-0.095592834
127	0x3e881a46	0.26582545
128	0x3dfd1837	0.12358134
129	0x3ecbdffd	0.39819327
130	0xbd90f914	-0.07078758
131	0x3e33b08e	0.17547819
132	0x3e50abed	0.20378084
133	0x3e25ef61	0.16204597
134	0x3e144ad9	0.14481677
135	0x3e8740ad	0.2641653
136	0x3e7fbf33	0.2497528
137	0x3db41d10	0.08794606
138	0x3e52da9d	0.20591207
139	0xbda662f4	-0.081243426
140	0x3c2bf414	0.0104952045
141	0x3ebe356e	0.3715014
142	0x3e1d80f6	0.15381226
143	0x3ea46f0f	0.3211598
144	0x3e35903c	0.17730802
145	0x3eeadcbc	0.45871532
146	0x3de9e34c	0.114203066
147	0x3e10dca8	0.14146674
148	0x3d4396cb	0.04775123
149	0x3ee83ba0	0.4535799
150	0x3e7f8322	0.24952367
151	0xbe492b67	-0.19645463
152	0x3ea3f01c	0.32019126
153	0x3e241bc7	0.16026221
154	0x3e29030c	0.16505069
155	0x3e935718	0.28777385
156	0x3e13c202	0.14429477
157	0xbc557337	-0.013027958
158	0x3e298263	0.16553645
159	0x3eab7dfe	0.33494562
160	0x3dd62add	0.10457394
161	0x3dc1b0eb	0.094575725
162	0x3c6a7887	0.0143109625
163	0x3db0dc01	0.086357124
164	0xbd0f5676	-0.034994565
165	0x3eca5a36	0.3952195
166	0x3ee51994	0.44746077
167	0x3ef89894	0.48553908
168	0x3dcde9da	0.10054369
169	0x3e1aa4cc	0.15101928
170	0x3e3bb3bb	0.1833028
171	0x3edf2e95	0.43590227
172	0x3e0652b7	0.1311749
173	0x3e068f32	0.13140562
174	0x3eae5588	0.3404963
175	0x3ed77360	0.42080212
176	0x3d7eac50	0.06217605
177	0xbc189728	-0.009313382
178	0x3df90529	0.12159187
179	0x3eb366b2	0.35039288
180	0x3e9251bc	0.28577983
181	0x3ea059e3	0.31318578
182	0x3e7c0d73	0.24614505
183	0xbd0fb26e	-0.035082273
184	0x3e449639	0.1919793
185	0x3eb3d7ae	0.35125488
186	0x3e63fb76	0.22263893
187	0x3e5e0672	0.21682146
188	0x3d0cd794	0.03438528
189	0x3d846b50	0.06465781
190	0xbef184d5	-0.47171655
191	0xbedf8ecc	-0.43663633
192	0x3dc69c37	0.09697764
193	0xbda3aa0f	-0.079914205
194	0x3bb6e5d4	0.005581597
195	0x3c7474e6	0.014920449
196	0xba0d9165	-0.00054003886
197	0xbbbc4bf7	-0.0057463604
198	0x3e833817	0.2562873
199	0x3d6bbef9	0.057555173
200	0x3d00025a	0.031252243
201	0xbdf30d6b	-0.11867794
202	0x3e095943	0.13412957
203	0xbe120c45	-0.14262493
204	0x3ef2e17b	0.47437653
205	0xbd9acda6	-0.075587556
206	0x3d9cd9bd	0.07658718
207	0x3d2e301b	0.042526346
208	0x3d89f78c	0.06736669
209	0xbd03c91e	-0.032174222
210	0xbe062451	-0.13099791
211	0xbe0b46c5	-0.13601215
212	0xbd96fc1b	-0.07372304
213	0xb820ed84	-3.8368176e-05
214	0xbd60a5e3	-0.054845702
215	0xbe5e66bd	-0.21718879
216	0x3d47cc0c	0.04877858
217	0x3e593971	0.21213318
218	0x3ca1f8cc	0.019771956
219	0xbd8aa4f6	-0.06769745
220	0xbe36e26e	-0.17859814
221	0xbd326ed6	-0.043562733
222	0xbd1fb3d9	-0.038989875
223	0xbd2ed09d	-0.042679418
224	0xbda516c2	-0.08060981
225	0x3d33ffc2	0.04394508
226	0x3df8b71d	0.12144301
227	0x3f8d0724	1.1017804
228	0xbb91a52a	-0.004444738
229	0x3d98182d	0.07426486
230	0x3e2c3497	0.16816936
231	0x3df53e62	0.11974789
232	0x3e89765d	0.26848117
233	0x3e866219	0.26246718
234	0x3c0c30a6	0.008556521
235	0xbcdfef08	-0.027335659
236	0x3e0d5bd3	0.1380456
237	0x3c81bfca	0.015838522
238	0xbbd439c3	-0.0064766123
239	0xbc043fbe	-0.008071838
240	0x3b881f6f	0.004154138
241	0x3de290ab	0.110627495
242	0x3da9f806	0.0829926
243	0xbdcb7ea3	-0.099362634
244	0xbcd3e043	-0.025863772
245	0x3e06212e	0.13098595
246	0x3e2f7e4c	0.17138022
247	0xbe13131f	-0.14362763
248	0xb9aa4500	-0.00032476336
249	0xbdce5364	-0.10074499
250	0x3c66d88d	0.014089716
251	0x3b25afc0	0.0025281757
252	0x3cf4863e	0.029849168
253	0xbd47eeba	-0.04881165
254	0x3d3c9c5b	0.04604755
255	0xbd1accab	-0.037792843

l1.bias f4 [8]
0	0x3ee54ed8	0.44786716
1	0x3e3b2c5a	0.18278638
2	0x3ec6dd5e	0.38840765
3	0x3ebacfc0	0.36486626
4	0x3f441a61	0.7660275
5	0x3e6b76b5	0.22994502
6	0x3f12858c	0.57235026
7	0x3ef1dfe8	0.4724114

l2.weight f4 [8, 8]
0	0xbe79754c	-0.24361151
1	0xbe2cd5cb	-0.1687843
2	0xbe31edf9	-0.17375936
3	0xbe818ec0	-0.25304222
4	0xbe0fc44d	-0.14039727
5	0xbe14a6fc	-0.14516824
6	0xbead153e	-0.3380527
7	0x3e8deae5	0.27718273
8	0x3f55d520	0.8352833
9	0xbee0528e	-0.43812984
10	0xbf4be71d	-0.79649526
11	0x3f88ef00	1.0697937
12	0x3f1d2c42	0.6139566
13	0xbf46dcd1	-0.7768069
14	0xbf59c93e	-0.85072696
15	0x3ef7d963	0.4840804
16	0xbef8d192	-0.4859739
17	0x3f498b9f	0.7872867
18	0x3f182c86	0.5944294
19	0xbf043fbe	-0.5165976
20	0x3f10775c	0.5643213
21	0x3f31c4d3	0.69440955
22	0xbe2e5f04	-0.17028433
23	0xbf4545d9	-0.77059704
24	0xbe221ea3	-0.15832
25	0x3f0a251d	0.5396288
26	0x3e1bc907	0.15213405
27	0x3e80fa31	0.2519088
28	0x3f90cd78	1.1312704
29	0xbda44ee3	-0.08022859
30	0xbea64c02	-0.32479864
31	0xbf0355a2	-0.5130254
32	0xbde4f0ae	-0.111787185
33	0x3e48e332	0.19617918
34	0x3dafe984	0.085894614
35	0x3e10c6c4	0.14138323
36	0xbe19b7df	-0.15011548
37	0x3dab4b40	0.08363962
38	0xbd810084	-0.062989265
39	0xbe49b6ac	-0.1969859
40	0x3f0733f7	0.5281367
41	0xbf085343	-0.5325205
42	0xbed4e030	-0.4157729
43	0x3f8e935b	1.1138719
44	0x3ec268b6	0.37970513
45	0xbf1b123b	-0.6057469
46	0xbf2aa8ac	-0.6666362
47	0x3ef92ec8	0.48668504
48	0x3faec8d8	1.3655043
49	0xbea7f917	-0.32807228
50	0x3f2cf382	0.67559063
51	0xbe108d0e	-0.14116308
52	0xbed0acaf	-0.40756747
53	0x3ecc4949	0.39899662
54	0x3f8d8441	1.1055986
55	0x3fa53dbc	1.2909465
56	0xbf343a01	-0.70401007
57	0x3f828418	1.0196562
58	0x3f610425	0.8789695
59	0xbf2bc407	-0.6709599
60	0x3f47c7b5	0.78039104
61	0x3f3c6ee3	0.736067
62	0x3f84865b	1.0353502
63	0xbf7753ac	-0.9661205

l2.bias f4 [8]
0	0xbe8f5cc8	-0.28000474
1	0x3f1ab1ca	0.60427535
2	0x3e87f61c	0.26554954
3	0x3f115f20	0.56785774
4	0xbe70ee78	-0.23528469
5	0x3e9a2d5f	0.3011274
6	0x3edc0cbe	0.42978472
7	0x3e834489	0.25638226

l3.weight f4 [3, 8]
0	0xbe86fdf6	-0.26365632
1	0xbf8b85de	-1.0900228
2	0xbf5d94b2	-0.86555016
3	0xbf3f1013	-0.746339
4	0x3e87c235	0.26515356
5	0xbe8c7abd	-0.27437392
6	0x3f91f967	1.1404237
7	0xbf329792	-0.6976253
8	0xbeb241cf	-0.34815833
9	0x3f832fc1	1.0248948
10	0xbefcfec6	-0.49413127
11	0x3e91c42f	0.2846999
12	0x3e260616	0.16213259
13	0x3f8f7773	1.1208328
14	0xbefde4c8	-0.4958861
15	0xbfbad5a5	-1.4596449
16	0x3e21473e	0.15749833
17	0xbf2c8b83	-0.6740038
18	0x3f3bf147	0.73415035
19	0x3f2b3845	0.66882735
20	0xbcb547a0	-0.02212888
21	0xbf6c3c45	-0.92279464
22	0xbf8ce481	-1.1007234
23	0x3f92ce95	1.1469294

l3.bias f4 [3]
0	0x3e8b598d	0.2721676
1	0xbf06c38d	-0.52642137
2	0xbe6cf6a3	-0.2314096
